train/models/model.tflite (tflite, 37708 bytes, 8 tensors)

sequential/dense_1/BiasAdd/ReadVariableOp/resource f4 [7]
0	0x3f28fc1c	0.6600969
1	0x3e8c64e5	0.27420726
2	0xbf12b1c6	-0.5730251
3	0xbf5db089	-0.86597496
4	0xbd3fc0ee	-0.04681485
5	0xbf690f95	-0.910394
6	0xbef515dc	-0.4786824

sequential/dense/BiasAdd/ReadVariableOp/resource f4 [16]
0	0xbde589d0	-0.11207926
1	0x3f542bcd	0.82879335
2	0xbe0dcd79	-0.13847913
3	0x3f4dd574	0.8040383
4	0x3d6b08ab	0.057381313
5	0xbe71c3f7	-0.23609911
6	0x3f78e558	0.9722495
7	0xbea05b0f	-0.31319472
8	0xbe0b6893	-0.1361411
9	0xbf01c3c9	-0.5068937
10	0xbd2cf364	-0.042224303
11	0x3f2f3c81	0.68451697
12	0xbed5ea7f	-0.4178047
13	0xbebab934	-0.36469424
14	0xbec8e7cf	-0.39239356
15	0x3e0dd109	0.13849272

sequential/conv2d_1/BiasAdd/ReadVariableOp/resource f4 [16]
0	0xbead8592	-0.3389097
1	0xbe80ff10	-0.25194597
2	0xbe174c51	-0.14775206
3	0x3e2aa3a8	0.16663992
4	0x3dc04f6c	0.093901485
5	0x3de279bd	0.11058376
6	0xbb5c2d5a	-0.0033596368
7	0xbef11827	-0.4708874
8	0xbeac765e	-0.33684057
9	0x3c907ac3	0.017636662
10	0xbed10fd1	-0.4083238
11	0xbda6f7a4	-0.081527025
12	0x3f33a455	0.70172626
13	0xbe6467d3	-0.22305231
14	0xbeb6dcaf	-0.35715243
15	0xbe261ec8	-0.1622268

sequential/conv2d/BiasAdd/ReadVariableOp/resource f4 [12]
0	0xbeb52e4e	-0.3538689
1	0x3ee7b76c	0.45257127
2	0xbeab87bc	-0.33501995
3	0xbebb36c9	-0.36565235
4	0xbebbf539	-0.36710528
5	0xbf5303c0	-0.824276
6	0x3caac86a	0.020847518
7	0xbf071fb6	-0.5278276
8	0xbf0e92cb	-0.5569274
9	0xbf106724	-0.5640738
10	0xbf87e1ea	-1.0615819
11	0x3e2cfc3c	0.16893095

sequential/dense/MatMul f4 [16, 464]
0	0xbe36a0ad	-0.1783473
1	0x3ea10ba3	0.3145419
2	0xbeaf8975	-0.3428456
3	0xbf453e85	-0.7704852
4	0xbdbc834a	-0.09204729
5	0xbe852391	-0.26003698
6	0x3e037f0a	0.1284143
7	0xbb2a41b1	-0.0025979097
8	0xbcc03849	-0.023464339
9	0x3db26f8e	0.087126836
10	0x3e26790c	0.16257113
11	0x3dd50342	0.10401012
12	0xbe50428b	-0.20337884
13	0x3ca177b0	0.019710392
14	0x3ec7c79a	0.3901947
15	0xbeaad282	-0.3336373
16	0xbe4fef59	-0.20306148
17	0xbe2fafdc	-0.17156929
18	0xbe9b5ead	-0.3034567
19	0xbf233193	-0.6374752
20	0xbf305a9d	-0.68888265
21	0x3e702b0c	0.23453921
22	0xbdfedcda	-0.12444468
23	0x3e7ae527	0.24501477
24	0xbe569f9e	-0.20959327
25	0xbd0ad48b	-0.033894103
26	0x3f145bd7	0.57952636
27	0xbe5919b9	-0.21201219
28	0xbeecafb0	-0.4622779
29	0x3eb73d2d	0.3578886
30	0x3e8c4a0a	0.27400237
31	0xbe890d3a	-0.26767904
32	0xbe9a4dc8	-0.30137467
33	0x3e8a6fca	0.27038413
34	0xbbce1d6a	-0.0062901275
35	0xbf555ab1	-0.8334151
36	0xbf03ad1b	-0.51436013
37	0x3ee595b1	0.44840768
38	0xbde4054d	-0.111338235
39	0xbd66a2a0	-0.056307435
40	0xbe895a98	-0.2682693
41	0xbdd0eeb5	-0.1020178
42	0x3dade65f	0.084912054
43	0xbe5071aa	-0.2035586
44	0xbf1868ad	-0.5953472
45	0xbe92bc7a	-0.2865942
46	0x3dbae175	0.09125034
47	0xbea5c85d	-0.32379428
48	0xbc8beae6	-0.017079782
49	0x3c68a602	0.014199736
50	0x3ca227e2	0.019794408
51	0xbf523e38	-0.8212619
52	0xbf457a34	-0.7713959
53	0x3c070c7d	0.0082427235
54	0x3de68167	0.1125515
55	0x3ea3c0a7	0.3198292
56	0x3cd3f268	0.025872424
57	0xbda7ec26	-0.081993386
58	0x3c8bd298	0.017068192
59	0xbd2657ee	-0.0406112
60	0xbf197add	-0.599531
61	0xbe9192ba	-0.28432256
62	0xbd96fcfc	-0.07372472
63	0xbcdf34ee	-0.027246919
64	0xbc0ddc0b	-0.008658419
65	0x3e157449	0.1459514
66	0x3d8daa9e	0.06917308
67	0xbf134355	-0.57524616
68	0xbf34ef72	-0.70677865
69	0xbbb4ec6c	-0.0055213477
70	0xbd4b65f4	-0.049657777
71	0x3e9cdaf6	0.30635804
72	0xbe89ef32	-0.26940304
73	0x3cc76c7b	0.02434372
74	0x3e9460fb	0.2898024
75	0xbea96ce4	-0.3309089
76	0xbec9c48a	-0.3940776
77	0xbeda46f6	-0.42632264
78	0xbdbeb0a1	-0.09311033
79	0x3e36b62f	0.17842935
80	0xbed1ac50	-0.40951777
81	0xbc4624f2	-0.012093769
82	0xbe0ede31	-0.13951947
83	0xbc9e74ee	-0.019342866
84	0x3e1dc65d	0.15407701
85	0x3e854c41	0.2603474
86	0xbcdcfa1b	-0.026974728
87	0xbd8305d6	-0.063975975
88	0xbe2f0280	-0.17090797
89	0x3d366884	0.044533268
90	0x3e8f6835	0.2800919
91	0xbe940236	-0.28907937
92	0x3e222e8d	0.1583807
93	0xbe61cfc1	-0.22051908
94	0xbd098731	-0.033576194
95	0x3e8bb103	0.27283487
96	0xbe6968ba	-0.22793856
97	0xbeea3226	-0.45741385
98	0x3df658ce	0.12028657
99	0x3ecdfa1e	0.40229887
100	0x3f47ab01	0.77995306
101	0xbd371f69	-0.04470769
102	0x3cf3a75f	0.029742895
103	0xbc0c0a86	-0.008547431
104	0xbe691b43	-0.22764306
105	0x3e8d92c3	0.27651033
106	0x3c8c63b9	0.017137395
107	0xbe42be48	-0.19017899
108	0x3f21071f	0.6290149
109	0xbe7e2066	-0.24817047
110	0xbf30cb8e	-0.690606
111	0xbbd7d467	-0.0065865996
112	0xbc25141d	-0.010075596
113	0xbda7cf2a	-0.0819381
114	0xbf0d4a48	-0.5519147
115	0x3e3bec07	0.18351756
116	0x3ef843d6	0.48489255
117	0x3da25d11	0.07927907
118	0x3c0743c8	0.008255906
119	0x3d431279	0.04762504
120	0xbe4d939c	-0.2007584
121	0xbe45de2d	-0.19323035
122	0x3cce8b73	0.025212979
123	0x3d85f907	0.06541639
124	0x3f578fb0	0.84203625
125	0xbe795fb2	-0.24352911
126	0xbdc4c1f1	-0.09607304
127	0xbeb9492c	-0.36188638
128	0x3db1b1df	0.08676504
129	0x3c787304	0.015164141
130	0xbe320104	-0.173832
131	0x3e41d917	0.1893047
132	0x3e560804	0.20901495
133	0xbd8aa271	-0.067692645
134	0x3e2a66ba	0.1664075
135	0x3e49e9a2	0.1971803
136	0xbdf6286a	-0.12019427
137	0x3e40661c	0.18788952
138	0xbd6923dc	-0.056918964
139	0xbe665cce	-0.2249634
140	0x3f1589c2	0.58413327
141	0xbc67b3f6	-0.014142027
142	0x3da8fb05	0.08251003
143	0xbcf4916e	-0.029854503
144	0x3e0c520f	0.13703178
145	0xbc7f8ef5	-0.015598048
146	0x3df93290	0.12167847
147	0x3e56a70a	0.20962158
148	0x3e8f5ad9	0.27999
149	0x3c2d034e	0.01055987
150	0x3e86cb18	0.26326823
151	0x3eb40d92	0.35166603
152	0x3e66492b	0.22488849
153	0xbd85b98c	-0.06529531
154	0xbe064656	-0.13112769
155	0x3e5b21ee	0.21399662
156	0x3f25fbd5	0.6483739
157	0x3e1a4b66	0.15067825
158	0xbe2a3784	-0.1662274
159	0xbd8e4062	-0.06945874
160	0xbe37cb87	-0.17948733
161	0x3a09ceab	0.0005256931
162	0x3dc45156	0.09585826
163	0x3e156719	0.1459011
164	0x3e5c8ff1	0.21539284
165	0xbe2b3b04	-0.16721731
166	0x3ef7642a	0.48318607
167	0x3cfd29d3	0.030903732
168	0x3e532501	0.20619585
169	0x3d325c00	0.04354477
170	0x3e4e8159	0.2016653
171	0x3e905b98	0.2819488
172	0x3e955da7	0.29173014
173	0xbdcd0e63	-0.1001251
174	0x3d47994d	0.048730183
175	0xbe406901	-0.18790056
176	0xbd287111	-0.041123454
177	0xbdf09a11	-0.11748136
178	0x3ddbb517	0.107278995
179	0x3e7cb283	0.24677472
180	0x3dd6a6ec	0.104810566
181	0x3d0f9e3e	0.03506302
182	0x3eabb258	0.33534503
183	0x3def1680	0.116742134
184	0x3deb6844	0.114944965
185	0x3d3138a8	0.043266922
186	0xbe8e65d7	-0.27812073
187	0x3e648555	0.22316487
188	0x3ee148de	0.44000906
189	0x3d2de7b5	0.0424573
190	0x3e17ad08	0.148121
191	0x3e49354c	0.19649237
192	0x3daa8b77	0.08327382
193	0x3d4957f7	0.049156155
194	0x3eb17bc4	0.34664738
195	0xbe16cd48	-0.14726746
196	0xbe80f720	-0.2518854
197	0xbcb2b3fe	-0.021814343
198	0x3e6fc9f1	0.23416878
199	0x3e2f1929	0.17099442
200	0x3e76eb6e	0.24113247
201	0x3dbac696	0.091199085
202	0xbe1048b4	-0.14090234
203	0x3e5e429d	0.21705098
204	0x3e89d919	0.26923445
205	0xbe70f9a6	-0.23532733
206	0x3e07b458	0.1325239
207	0xbe1bd284	-0.15217024
208	0x3de9181f	0.11381554
209	0x3daf61e9	0.08563597
210	0x3e2c0279	0.16797818
211	0xbe3da804	-0.18521124
212	0xbe9a0a00	-0.30085754
213	0xbe189b27	-0.14902936
214	0x3e083f90	0.13305497
215	0x3e8490e0	0.2589178
216	0x3eba9752	0.36443573
217	0xbceb0a0e	-0.028691318
218	0x3c86a44b	0.016435763
219	0x3e8498fb	0.25897965
220	0x3e366da9	0.1781527
221	0xbddfaf8f	-0.10922157
222	0x3d731117	0.05934247
223	0x3c857871	0.016292783
224	0x3dfad090	0.122468114
225	0x3e763b26	0.24046001
226	0x3d75add7	0.05998024
227	0x3d57a41d	0.052646745
228	0x3de880f7	0.11352723
229	0xbd098e35	-0.033582885
230	0xbe04f526	-0.12984142
231	0xbd944652	-0.07239975
232	0x3da21ae0	0.07915282
233	0xbca7e8f7	-0.020496828
234	0x3e199c34	0.15000993
235	0x3e7abe47	0.24486648
236	0x3e80a0bc	0.2512263
237	0xb953d684	-0.00020202441
238	0x3db93dc8	0.09044987
239	0x3d57807a	0.05261276
240	0xbdb9005e	-0.09033273
241	0x3e51a459	0.2047285
242	0x3eb25ae4	0.3483497
243	0xbd00ab35	-0.031413276
244	0xbdc82eb7	-0.09774535
245	0xbe0794d0	-0.13240361
246	0xbd435b91	-0.047694746
247	0xbdc2e7b0	-0.09516847
248	0x3ec0ae14	0.3763281
249	0xbd097275	-0.03355642
250	0x3e2be36f	0.16785978
251	0x3e2e5b33	0.17026977
252	0x3e34b41d	0.17646833
253	0xbe141030	-0.144593
254	0x3d8c8e31	0.06863058
255	0xbf0370a4	-0.5134375

sequential/dense_1/MatMul f4 [7, 16]
0	0xbf59eaaa	-0.85123694
1	0x3e7dbc92	0.24778965
2	0xbec600f1	-0.38672593
3	0x3f0cdb0e	0.5502175
4	0xbe6bcbab	-0.23026912
5	0xbf81876a	-1.011945
6	0x3eb14554	0.34623206
7	0x3e2c91d5	0.16852506
8	0xbf843909	-1.0329906
9	0x3ea9fabd	0.3319911
10	0xbf6982aa	-0.91215
11	0x3f7160c6	0.9428829
12	0xbf8420ee	-1.0322549
13	0xbf89cccf	-1.0765628
14	0xbfa57715	-1.2926966
15	0xbf3db569	-0.74104935
16	0x3e5c15e7	0.2149273
17	0x3e4f4ee9	0.20244946
18	0x3e8076c2	0.25090605
19	0xbf19edb3	-0.60128325
20	0xbf3550af	-0.7082624
21	0xbddcca37	-0.10780757
22	0xbfb77757	-1.4333295
23	0xbfc9857f	-1.5743865
24	0x3f04772f	0.5174436
25	0xbd93c83c	-0.07215926
26	0x3e80bca6	0.25143927
27	0x3e3761b9	0.17908372
28	0xbeeb9c69	-0.4601777
29	0x3ec40787	0.38286993
30	0xbe9bc432	-0.30423123
31	0xbfaa1c47	-1.328988
32	0xbffa0a34	-1.9534364
33	0xc04ff6a5	-3.249429
34	0xbfdaaaae	-1.7083337
35	0xc030844e	-2.7580752
36	0x3ef1d0d5	0.4722964
37	0xbfa4ff26	-1.2890365
38	0x3e8ebdf3	0.27879295
39	0xbf064ecc	-0.52463984
40	0xbfc2ad1b	-1.5209078
41	0xbf8aa7c0	-1.0832443
42	0x3ececa99	0.40388945
43	0xbf3304e1	-0.6992932
44	0xbeac5d78	-0.3366506
45	0x3ed34c7d	0.41269293
46	0xbf402699	-0.75058895
47	0xbf513601	-0.8172303
48	0x3e02e171	0.12781312
49	0xbf550fe9	-0.832274
50	0xbe34a821	-0.17642261
51	0xbf530c67	-0.824408
52	0xbf858816	-1.0432155
53	0x3e827026	0.25476187
54	0xbf36fc0b	-0.7147834
55	0x3d359921	0.04433549
56	0xbddd5971	-0.10808075
57	0x3f30052c	0.6875789
58	0xbf63ef1a	-0.89036715
59	0xbf97c754	-1.1857705
60	0x3f2c617f	0.6733627
61	0x3ef70ff8	0.4825437
62	0x3efd0612	0.49418694
63	0xbf945953	-1.158976
64	0xbea88bd1	-0.3291917
65	0x3e787b7e	0.24265859
66	0xbf0163d7	-0.5054297
67	0x3e8e889f	0.2783861
68	0x3eb4debd	0.35326186
69	0xbd1edf5c	-0.03878723
70	0x3e5f607d	0.21814151
71	0xbdd05161	-0.10171772
72	0xbde75b2a	-0.11296685
73	0x3e9c7fb2	0.30566174
74	0xbd823d6d	-0.06359372
75	0xbebbc137	-0.3667085
76	0x3f003034	0.5007355
77	0x3da4b8bb	0.08043047
78	0x3eb061c9	0.34449604
79	0x3f6a12e5	0.9143508
80	0x3ecca67d	0.3997077
81	0xbfdb8a78	-1.7151632
82	0xbfa1d356	-1.264262
83	0xbf0a8073	-0.5410225
84	0xbfa6839e	-1.3008916
85	0x3e920d67	0.2852585
86	0xbfe85199	-1.8149902
87	0x3f1c4b03	0.6105196
88	0xbf23e912	-0.6402751
89	0xbf929a3e	-1.1453321
90	0x3d9c8294	0.07642093
91	0xbf168083	-0.58789843
92	0x3dfd7046	0.1237493
93	0xbf83977b	-1.0280603
94	0x3e64f453	0.22358827
95	0xbf71d1bd	-0.9446066
96	0x3d945de4	0.07244471
97	0xbfc00cfe	-1.5003965
98	0xbcde840c	-0.027162574
99	0xbfe5bb52	-1.7947791
100	0x3eff1906	0.4982378
101	0x3f508f5a	0.8146874
102	0xbfb4112a	-1.4067738
103	0x3d1691a6	0.036759995
104	0xbf288337	-0.6582522
105	0xbec49362	-0.38393694
106	0xbf076023	-0.5288107
107	0xbfd39b8f	-1.6531848
108	0xbf21dea8	-0.6323037
109	0xbe2173db	-0.15766852
110	0xbf8c235e	-1.0948293
111	0xbf501d38	-0.81294584

sequential/conv2d/Conv2D f4 [12, 5, 5, 1]
0	0xbea0cba3	-0.31405362
1	0xbdd36678	-0.10322279
2	0xbd915705	-0.07096676
3	0x3d0d6674	0.034521535
4	0xbe4aa486	-0.19789323
5	0xbed2325d	-0.4105405
6	0x3df33966	0.11876182
7	0x3d9203ba	0.07129617
8	0xbd8e17cc	-0.06938133
9	0xbe80b850	-0.2514062
10	0xbe2af8ce	-0.16696474
11	0xbdc917ab	-0.098189674
12	0x3dc9f403	0.09860995
13	0x3e6fc22b	0.23413913
14	0xbedf0615	-0.43559328
15	0x3d7c011d	0.0615245
16	0x3d8a86fb	0.06764027
17	0xbeaf4741	-0.3423405
18	0xbe505efd	-0.20348735
19	0xbec1ecd5	-0.37876
20	0xbdb0002e	-0.08593784
21	0xbd3cb7f4	-0.04607387
22	0xbcaa41e3	-0.02078337
23	0xbeecd8e8	-0.46259236
24	0x3dd0b589	0.10190875
25	0x3e5b05a5	0.21388872
26	0xbe025e2d	-0.12731238
27	0xbe2b0da4	-0.16704422
28	0xbda7397b	-0.081652604
29	0xbe0b4d25	-0.13603647
30	0x3ebf0c7f	0.3731422
31	0xbe0f6c02	-0.14006045
32	0xbdd75841	-0.1051488
33	0xbcd0c52d	-0.025484646
34	0xbd871cf0	-0.06597316
35	0x3ea4bb2c	0.3217405
36	0xbde4ee30	-0.11178243
37	0xbe333329	-0.17499985
38	0xbd8a42ec	-0.067510456
39	0xbe1cfd43	-0.15330987
40	0x3e132b57	0.14372002
41	0xbe85138a	-0.2599147
42	0xbe43f9fd	-0.19138332
43	0xbe3c4ed1	-0.18389441
44	0xbde499f5	-0.111621775
45	0x3da84939	0.08217091
46	0xbe4075cf	-0.1879494
47	0xbe1c04b6	-0.15236172
48	0xbe7c128f	-0.24616455
49	0x3d8af3bf	0.06784772
50	0xbe904461	-0.2817717
51	0xbd47aa3e	-0.04874634
52	0x3dc2666e	0.09492193
53	0x3daf11ad	0.08548293
54	0x3e72625c	0.23670334
55	0xbe99cbfd	-0.30038443
56	0x3dc79a21	0.09746195
57	0x3d068235	0.03283902
58	0x3db4c7e5	0.08827189
59	0x3b20d680	0.0024541914
60	0x3d89282c	0.06697115
61	0x3e6db4b5	0.23213466
62	0x3d250727	0.040290024
63	0x3db2af9e	0.087249026
64	0xbda6a0d7	-0.081361465
65	0x3ea58645	0.32329002
66	0xbc93b81c	-0.018032126
67	0xbde86e68	-0.11349183
68	0x3bc45ee5	0.0059927576
69	0x3bc5de45	0.0060384595
70	0x3dddb29e	0.10825084
71	0xbe0eec33	-0.1395729
72	0xbe7ef24b	-0.24897115
73	0xbeba9e84	-0.36449063
74	0x3cd6faea	0.026242692
75	0xbe981f12	-0.29711205
76	0x3c1b7ca8	0.00949017
77	0x3ea4348e	0.32071346
78	0x3d3eb86d	0.0465626
79	0x3c3e8c5c	0.011630144
80	0xbdd1df84	-0.1024771
81	0x3db84d65	0.08999137
82	0x3ebfbac7	0.37447187
83	0x3c3b9b88	0.011450656
84	0x3da9ca8a	0.082905844
85	0x3decd5eb	0.11564239
86	0xbe0f849b	-0.14015429
87	0x3e300a43	0.17191415
88	0x3dfad43d	0.122475125
89	0xbcdd0d68	-0.026983932
90	0x3e457e15	0.19286378
91	0xbe1282c9	-0.14307703
92	0xbe972aca	-0.29524833
93	0x3dca67ff	0.09883117
94	0xbd8c4a99	-0.06850166
95	0x3d669832	0.05629749
96	0x3da7c929	0.08192665
97	0xbee82c5c	-0.45346344
98	0x3cf54375	0.029939393
99	0xbdfe2453	-0.12409272
100	0xbe27b104	-0.1637612
101	0x3df22b36	0.11824648
102	0xbc689c8e	-0.014197482
103	0xbc2f6966	-0.010706281
104	0xbe3440f7	-0.17602907
105	0xbede346d	-0.43399373
106	0x3e290c5d	0.16508622
107	0xbe77134c	-0.24128455
108	0xbe77238e	-0.24134657
109	0xbe246de4	-0.16057545
110	0xbe6e802f	-0.23291086
111	0x3e202894	0.1564048
112	0xbe6d7e70	-0.23192763
113	0x3c9ace5d	0.01889723
114	0x3b1254c3	0.0022328354
115	0xbe1aec47	-0.15129195
116	0x3df2cbca	0.11855276
117	0xbe3db82e	-0.1852729
118	0xbde6657a	-0.11249824
119	0xbc8f0df4	-0.017462708
120	0xbe235f7c	-0.15954393
121	0xbc886753	-0.016650831
122	0xbe05590e	-0.13022253
123	0xbe97247f	-0.29520032
124	0xbde1d298	-0.11026496
125	0x3c956e55	0.018241087
126	0xbe360e74	-0.17778951
127	0xbd487b19	-0.04894552
128	0xbc825a3e	-0.015912171
129	0xbe83d705	-0.25749984
130	0xbe530b85	-0.20609863
131	0x3e7f4a02	0.24930575
132	0x3e1a49df	0.15067242
133	0x3d49beee	0.04925435
134	0x3ec2fd4a	0.3808387
135	0x3e340031	0.17578198
136	0xbe88cd95	-0.26719347
137	0xbee05ce5	-0.43820873
138	0xbe4d0da2	-0.20024732
139	0xbec560bc	-0.38550365
140	0xbe1f6f54	-0.15569812
141	0x3e14a985	0.14517792
142	0x3ea50b58	0.32235217
143	0xbe48bb27	-0.19602643
144	0x3ea731c3	0.32655153
145	0x3d72935a	0.059222557
146	0x3de3bf69	0.11120493
147	0xbe13a2eb	-0.14417617
148	0xbbbf1f95	-0.0058326223
149	0xbe365798	-0.17806852
150	0xbd7aac45	-0.061199445
151	0xbe0045ec	-0.12526673
152	0x3d989d2b	0.074518524
153	0xbe82b0ec	-0.25525606
154	0x3d4cafe0	0.049972415
155	0xbe7cb50d	-0.2467844
156	0xbea4fb92	-0.32223183
157	0x3ba9c9e7	0.0051815393
158	0xbc4a039f	-0.012329965
159	0x3e0f5432	0.13996962
160	0xbf090e98	-0.53537893
161	0xbe3c9b5e	-0.18418643
162	0xbe1cfec3	-0.15331559
163	0xbdf2a657	-0.11848133
164	0x3e412998	0.18863523
165	0xbee827b3	-0.45342788
166	0xbd4fe4d5	-0.05075534
167	0xbe74b165	-0.23895796
168	0xbda19393	-0.07889476
169	0x3e88c646	0.2671377
170	0xbdad5799	-0.084639736
171	0xbd6d8525	-0.057988305
172	0xbde1a038	-0.110168874
173	0xbdacbb86	-0.08434205
174	0x3eadb181	0.33924487
175	0xbd999f21	-0.075010546
176	0x3d247715	0.040152628
177	0xbd2f1bd5	-0.042751152
178	0xbeab3560	-0.3343916
179	0xbe9f6cc0	-0.31137657
180	0xbeaf8b90	-0.34286165
181	0xbe0afd9a	-0.13573304
182	0xbdbe39ac	-0.09288344
183	0xbe1e249f	-0.15443657
184	0x3a77dc8d	0.0009455167
185	0xbed7ae07	-0.4212496
186	0x3e2b4e22	0.16729024
187	0x3e5093d9	0.203689
188	0x3d719416	0.058979116
189	0xbe8a4330	-0.27004385
190	0xbe776553	-0.24159746
191	0xbca3f0db	-0.02001231
192	0xbc3e6938	-0.011621766
193	0x3e85c01b	0.26123127
194	0x3d88e916	0.066850826
195	0x3e2460c7	0.16052543
196	0xbdb4f59e	-0.0883591
197	0xbe36d2bd	-0.17853828
198	0x3dcd4890	0.10023606
199	0xbe2c53e3	-0.16828875
200	0x3dc7ddb3	0.09759083
201	0x3e2c0bdf	0.16801403
202	0x3d7161d8	0.0589312
203	0x389f6572	7.6006065e-05
204	0xbdfd1960	-0.123583555
205	0xbd880237	-0.066410474
206	0xbd2603c2	-0.040530927
207	0x3e005df9	0.12535848
208	0x3dcf2afe	0.10115622
209	0xbde9769c	-0.11399576
210	0xbd05047d	-0.032474983
211	0xbcba0dae	-0.022711601
212	0x3e3503a6	0.17677173
213	0x3d80182a	0.06254609
214	0xbe34c1bd	-0.1765203
215	0xbcca858a	-0.02472188
216	0xbda8e2d6	-0.082463905
217	0x3e8b51d2	0.2721086
218	0x3e86c785	0.26324096
219	0xbdc60baa	-0.096701935
220	0x3d4e0a38	0.050302714
221	0x3cd6ce0a	0.026221294
222	0x3e12e531	0.14345242
223	0x3e2430f6	0.16034302
224	0xbcba90ce	-0.022774126
225	0x3d9a2230	0.07526052
226	0x3e0d1b42	0.1377993
227	0xbce30b9f	-0.027715502
228	0xbd291625	-0.041280884
229	0xbe552633	-0.20815353
230	0x3e16cf4c	0.14727515
231	0x3e0dc574	0.13844854
232	0x3d4a4451	0.049381558
233	0x3d6520c4	0.05593945
234	0xbe6b93f9	-0.23005666
235	0x3ec89adb	0.39180645
236	0x3e0c8067	0.13720857
237	0x3d48acc0	0.048992872
238	0x3db17b9c	0.08666155
239	0xbe6fd1ef	-0.23419927
240	0x3e80eefb	0.25182328
241	0x3dcf9488	0.10135752
242	0x3c9260b6	0.017868381
243	0xbd84c38f	-0.06482612
244	0xbe0b958e	-0.1363127
245	0x3dfb421d	0.122684695
246	0x3dad54dc	0.08463451
247	0x3d7b5170	0.06135696
248	0x3d9a49c7	0.07533603
249	0xbeaebf0f	-0.3413014
250	0xbe60ee8c	-0.21965998
251	0x3ce09f87	0.027419819
252	0x3d5bbf20	0.053649068
253	0xbe3cc9da	-0.18436375
254	0xbd9e6326	-0.07733755
255	0x3e1499e6	0.14511833

sequential/conv2d_1/Conv2D f4 [16, 4, 1, 12]
0	0xbdffc6b2	-0.1248907
1	0x3ef18393	0.47170696
2	0x3dfb37c6	0.12266497
3	0xbd1f4990	-0.038888514
4	0x3e12e28d	0.14344235
5	0x3e72ff03	0.23730092
6	0xbe983da6	-0.29734534
7	0x3c4fa420	0.012673408
8	0x3de1491f	0.11000275
9	0x3eb613b5	0.3556191
10	0x3ce83696	0.028346341
11	0x3d55a357	0.052157726
12	0xbeb9cc3a	-0.36288625
13	0x3eb896c1	0.36052516
14	0xbd7d9e35	-0.061918456
15	0x3e41c30a	0.18922058
16	0xbd4db66f	-0.05022281
17	0xbd4e2100	-0.05032444
18	0xbe5f8b63	-0.21830516
19	0xbe6f18ff	-0.23349379
20	0xbd975fb2	-0.07391299
21	0x3d1118df	0.03542411
22	0xbe2aa9b8	-0.16666305
23	0xbe4eb10a	-0.20184723
24	0xbf2516a9	-0.644877
25	0x3ec3f980	0.3827629
26	0xbdaed160	-0.08536029
27	0x3d3b46ce	0.04572182
28	0xbd1c85d7	-0.038213577
29	0xbe33ac55	-0.17546208
30	0xbee0fc3e	-0.43942446
31	0xbf33acaf	-0.7018537
32	0xbe9b9bb9	-0.30392244
33	0xbd22a1ba	-0.039705016
34	0xbe819f7f	-0.25316998
35	0x3cd70051	0.026245268
36	0xbea26846	-0.3172018
37	0x3c9988a1	0.018741908
38	0xbe7153bd	-0.235671
39	0xbe0e7636	-0.13912281
40	0xbdf270c4	-0.118379146
41	0xbe5d6ffd	-0.21624751
42	0xbe726580	-0.23671532
43	0xbead6763	-0.3386794
44	0xbf016f78	-0.5056071
45	0xbef5a360	-0.47976208
46	0xbd97b3d0	-0.074073434
47	0x3e8a3abb	0.26997933
48	0x3e5e9a5d	0.21738572
49	0x3b7f004a	0.0038910084
50	0x3d9f6412	0.07782759
51	0x3db7ff53	0.08984246
52	0x3e0d2a4d	0.13785668
53	0xbe22ac71	-0.15886094
54	0x3e862c90	0.26205873
55	0x3edcb16a	0.43104106
56	0x3d3f19fb	0.046655636
57	0x3d83da3d	0.0643811
58	0xbd76faf4	-0.06029792
59	0x3de9b9de	0.114124045
60	0x3d961442	0.073280826
61	0xbe1ffab9	-0.15622987
62	0x3de68b4b	0.11257037
63	0x3c174882	0.009233596
64	0xbe2b1c89	-0.16710104
65	0xbdcf571c	-0.10124037
66	0x3df433c1	0.11923934
67	0xbe7a21ff	-0.24427031
68	0xbd336dde	-0.04380595
69	0x3dc55d97	0.096369915
70	0xbe1cf12c	-0.15326375
71	0x3ce7aaf8	0.028279766
72	0xbe466fb7	-0.19378553
73	0xbe4ff1bd	-0.2030706
74	0xbeb13ed0	-0.34618235
75	0xbd2992c0	-0.041399717
76	0xbce7a7b9	-0.028278219
77	0xbda1a588	-0.07892901
78	0xbe4967ed	-0.19668551
79	0x3d282147	0.04104736
80	0x3e2925d3	0.16518335
81	0x3d2e3f41	0.042540792
82	0xbe95166b	-0.29118666
83	0xbe48277a	-0.19546309
84	0xbe172dd7	-0.1476358
85	0xbd035da0	-0.03207171
86	0x3bd68c6e	0.0065475022
87	0xbd50b1a2	-0.050950654
88	0x3d8f6345	0.07001356
89	0xbea13482	-0.31485373
90	0xbef22544	-0.47294056
91	0xbec62220	-0.3869791
92	0xba118113	-0.00055505446
93	0x3dd59a1a	0.10429783
94	0xbe4f5cfa	-0.20250311
95	0xbec53cec	-0.38523042
96	0xbd0f69f8	-0.03501317
97	0xbe5e0aef	-0.21683858
98	0xbe43403f	-0.19067477
99	0x3d87bc38	0.06627697
100	0x3e96cd83	0.29453668
101	0xbf09ce49	-0.5383039
102	0xbd19060c	-0.037359282
103	0xbbd29ffe	-0.006427764
104	0xbe293014	-0.16522247
105	0xbe8b12ac	-0.27162683
106	0xbf2153f6	-0.6301874
107	0xbe3f8d4e	-0.18706247
108	0x3dc0defe	0.094175324
109	0x3e5cbe25	0.2155691
110	0xbe99de97	-0.30052635
111	0xbe2ee884	-0.17080885
112	0x3e094f90	0.13409257
113	0xbf23e86c	-0.6402652
114	0x3ea49c76	0.3215062
115	0x3eb5b1c9	0.35487202
116	0xbede381d	-0.43402186
117	0xbf716ccb	-0.9430663
118	0xbf53d812	-0.8275157
119	0x3c8360fa	0.016037453
120	0x3e2be454	0.16786319
121	0x3da32f55	0.07968012
122	0x3b09f85a	0.002105257
123	0xbebdd891	-0.3707929
124	0x3ef9a1b8	0.48756194
125	0xbf228f87	-0.63500255
126	0x3ea50566	0.3223068
127	0x3cb466f9	0.022021757
128	0xbed20418	-0.41018748
129	0xbf19671e	-0.5992297
130	0xbefa7abd	-0.48921767
131	0x3e50220e	0.20325491
132	0xbce4132a	-0.02784117
133	0xbd8b3c83	-0.06798651
134	0xbe02354d	-0.12715645
135	0xbd6f209b	-0.058380704
136	0x3eaeac51	0.34115842
137	0xbf40bf75	-0.7529214
138	0xbdfa26a2	-0.122144
139	0xbd9ac797	-0.075576
140	0xbe8e3195	-0.27772203
141	0xbeacc107	-0.33741018
142	0xbeb106a4	-0.3457538
143	0xbe0b6ecb	-0.13616483
144	0xbddba704	-0.10725215
145	0x3efaa371	0.4895282
146	0xbe7fddf2	-0.24987009
147	0x3cf44ddf	0.029822288
148	0xbe37585e	-0.17904803
149	0xbf04bb98	-0.51848745
150	0x3d7d2414	0.061801985
151	0xbea5754c	-0.32316053
152	0xbede58e8	-0.43427205
153	0xbdea6657	-0.11445301
154	0xbeb61faf	-0.35571048
155	0x3e1eb311	0.15497996
156	0xbe0777f8	-0.13229358
157	0x3e934041	0.2875996
158	0xbeb1275e	-0.34600347
159	0xbed60a27	-0.4180462
160	0xbe3edde4	-0.18639332
161	0xbeb8d2b1	-0.36098245
162	0x3ea126c7	0.31474897
163	0xbe22b558	-0.1588949
164	0xbf2cd875	-0.6751779
165	0xbe9a00ba	-0.3007868
166	0xbed25f1b	-0.41088185
167	0x3e7f2de9	0.24919857
168	0xbe961eba	-0.29320318
169	0x3ef5eab8	0.4803064
170	0xbe665915	-0.2249492
171	0xbf0088bd	-0.50208646
172	0xbe576a4c	-0.21036643
173	0xbeee4e13	-0.4654394
174	0x3e5baa7f	0.21451758
175	0xbe825372	-0.2545429
176	0xbf19823f	-0.59964365
177	0xbec76347	-0.3894293
178	0xbf375177	-0.7160868
179	0x3ec3af57	0.3821971
180	0xbe9fd086	-0.31213778
181	0x3f053fd0	0.52050495
182	0xbeb7a8f9	-0.35871103
183	0x3da62451	0.081123956
184	0xbe85ab0b	-0.26107058
185	0xbefcebac	-0.49398553
186	0x3ea54d86	0.32285708
187	0xbd4f8d9f	-0.05067217
188	0xbeab52cb	-0.33461604
189	0xbc825d9d	-0.015913779
190	0xbe6711ff	-0.22565459
191	0x3e87d387	0.2652857
192	0x3d973a62	0.073841825
193	0x3ea19067	0.31555483
194	0xbeae9d1a	-0.34104234
195	0xbe8085d2	-0.25102097
196	0xbea66234	-0.32496798
197	0xbe827db6	-0.25486535
198	0xbe337e0d	-0.17528553
199	0x3bb0321d	0.0053770677
200	0xbfbc84b0	-1.4727993
201	0xbeb294e5	-0.34879223
202	0xbe31c3cd	-0.17359848
203	0x3ac1bdda	0.0014781312
204	0x3dcbe4f8	0.09955782
205	0xbd205a30	-0.03914851
206	0xbf15e7e1	-0.58556944
207	0xbf0efa31	-0.5585051
208	0xbdd38823	-0.103287004
209	0xbe175f4e	-0.1478245
210	0x3e028be4	0.12748677
211	0xbcddf39a	-0.027093697
212	0xbfdc4940	-1.7209854
213	0xbf0623a1	-0.52398115
214	0xbf0c2f0a	-0.54759276
215	0x3d91193d	0.07084892
216	0xbd440029	-0.047851715
217	0x3de1f14f	0.11032354
218	0xbe09714c	-0.13422126
219	0xbe836b5f	-0.25667855
220	0xbd9ae6ea	-0.075635746
221	0xbebd3368	-0.36953282
222	0xbc37e425	-0.0112238275
223	0x3c5c44b2	0.013444113
224	0xbfaf4495	-1.3692805
225	0xbeb0b5a7	-0.3451359
226	0xbeb5e02f	-0.355226
227	0x3ea9c6b8	0.33159423
228	0xbde66501	-0.11249734
229	0x3eadd8e2	0.3395453
230	0xbdad51d7	-0.08462875
231	0x3dfe16a8	0.12406665
232	0x3e2671a5	0.1625429
233	0xbeb250d3	-0.3482729
234	0x3e116375	0.14198096
235	0x3e2f9e68	0.17150271
236	0xbe2a41c2	-0.16626647
237	0x3db3d58e	0.08780967
238	0xbd8a2644	-0.0674558
239	0x3efca6db	0.4934605
240	0x3e8be7c0	0.2732525
241	0xbcb3a7bd	-0.02193057
242	0xbd8d52a3	-0.06900527
243	0x3e3ba95a	0.18326321
244	0x3e1089b8	0.14115036
245	0xbe13e5c2	-0.14443114
246	0x3e3f8bcc	0.18705672
247	0x3d5136a1	0.05107749
248	0xbe9c444b	-0.30520853
249	0xbe9151dc	-0.28382766
250	0x3e797e00	0.24364471
251	0x3ad42090	0.0016184021
252	0x3c04a4a1	0.008095891
253	0x3bb39a26	0.0054810224
254	0xbc6d93b2	-0.014500545
255	0xbdff45cb	-0.12464484
